models/Motisma-v1.onnx (onnx, 205430 bytes, 9 tensors)

layer1.weight f4 [32, 1536]
-0.0117998775 -0.016012814 0.032717314 0.040228266 -0.02040138 0.0035752142 0.018067215 0.020234033
0.017420499 0.003830001 -0.0076254704 0.029271865 -0.0076157213 -0.02699515 0.030949878 0.031175636
-0.01634703 -0.003970192 0.02563747 0.018017285 0.031005362 0.0016700103 0.018588562 0.02329445
0.0003622117 0.002186694 -0.015318572 0.0017701084 -0.007583673 0.0448458 0.00277138 0.03189918
-0.022986423 0.0059239347 0.027721133 0.0144003825 -0.0025718233 -0.012371011 0.014677516 -0.000112696835
-0.007781332 0.012518762 0.0064754495 -0.015053185 0.021996876 -0.0059432606 0.008791291 0.015783688
-0.008603987 -0.018313583 0.018664815 -0.00090327975 0.015653003 -0.022941336 -0.009274932 -0.0067167706
0.022812894 0.03411335 -0.02694012 0.02710309 0.011917613 -0.0010926016 -0.021281878 0.019893713
0.027220933 -0.0011494651 -0.016916843 0.009245498 0.020482205 -0.031925477 0.0002886547 0.0043043727
-0.020652577 -0.016769275 -0.017681185 -0.03329371 0.008898414 0.018140143 -0.012816124 0.013145032
-0.004504116 0.0014300765 0.0068127136 -0.0033942913 -0.030786674 0.012287483 0.018873585 0.024137257
0.0174568 0.0067732297 -0.01656191 0.012821498 0.017112004 -0.0027200584 0.01149652 0.0010287252
-0.0042110933 0.028086614 0.0337629 0.05201206 0.020050872 0.013641028 0.031173596 0.010361934
0.023837956 0.029172022 0.0034412045 -0.010160112 -0.010195263 -0.021422341 -0.01895853 0.0024138533
8.724226e-05 -0.0032008865 -0.018949222 0.01332234 0.014224747 0.0046323743 -0.01159413 -0.014426646
-0.007856109 0.020253146 -0.0031492237 0.0036281548 0.018028384 -0.012181174 -0.028958324 -0.016665788
0.005647255 -0.019120747 -0.002663015 0.00998916 0.02063161 -0.012494754 0.00834205 -0.014391398
-0.017742446 -0.0028797511 -0.012827767 0.0073048538 -0.019375091 0.018167712 -0.020440545 -0.020400904
0.018106861 -0.024895547 -0.00043184974 0.023393597 0.03926438 -0.021352442 -0.01391862 -0.0062958263
0.00013834894 -0.0064682695 0.0054931184 0.028148951 0.016037162 0.010984562 0.006704466 0.022081418
0.0030767242 0.018132277 -0.025387539 -0.013213642 0.02631658 0.0012407816 -0.0017007027 -0.011653856
0.004986249 -0.025761254 0.023419248 -0.017078785 -0.016588464 -0.0048892605 0.018430233 -0.015783178
0.025318548 0.025734456 0.018325083 -0.0060335645 0.012055459 0.017490542 0.007348927 -0.0023817336
-0.012039779 -0.0144588 -0.020332817 -0.0090758605 -0.0021990936 -0.026513636 -0.00012565155 0.026933242
-0.015715566 -0.00088516815 -0.014824603 0.03794758 0.0011473142 0.0017166211 0.0012665127 0.0024288238
0.016111583 -0.003889846 0.0008694008 -0.008631759 0.028242359 0.000972052 0.024268536 0.02040551
0.015162262 0.004209791 0.009679981 0.0038821152 -0.0019161098 0.025796775 0.021457722 0.008426929
-0.03612598 -0.0039822385 -0.007177215 0.0034299279 -0.014865018 0.016107682 -0.02815021 -0.015950976
-0.0073351124 0.013553765 -0.008211755 0.0047577545 -0.017846968 0.024191836 -0.015638474 -0.018644938
-0.012951924 0.0063719186 -0.021661103 -0.009307222 -0.0043610544 0.012536426 0.0149764335 -0.0084481435
-0.0046503125 -0.020562628 -0.008156965 -0.009287999 0.031150253 -0.03630947 -0.008726975 0.0088332
-0.011535805 0.019568047 -0.021170191 -0.017091313 0.010332637 -0.0060586324 -0.02991697 0.02904989
00000000: 4654 41bc 4e2d 83bc 9702 063d 65c6 243d
00000010: cb20 a7bc 244e 6a3b b201 943c d8c1 a53c
00000020: 6fb5 8e3c c100 7b3b 15df f9bb 8dcb ef3c
00000030: 4d8d f9bb ef24 ddbc 998a fd3c 0c64 ff3c
00000040: 35ea 85bc 6218 82bb ac05 d23c fc98 933c
00000050: f5fe fd3c 3fe4 da3a 0a47 983c 01d4 be3c
00000060: 3be7 bd39 a34e 0f3b bffa 7abc fb02 e83a
00000070: 7680 f8bb 3bb0 373d 0aa0 353b b7a8 023d
00000080: 064e bcbc 911d c23b 6e17 e33c 95ef 6b3c
00000090: 098c 28bb c8af 4abc f779 703c a757 ecb8
000000a0: 8bfa febb 7e1b 4d3c 0230 d43b a2a1 76bc
000000b0: cb32 b43c afbf c2bb 5909 103c cb4c 813c
000000c0: bdf7 0cbc 5e06 96bc f4e6 983c 14ca 6cba
000000d0: ba3a 803c 78ef bbbc e2f5 17bc 5b18 dcbb
000000e0: 1be2 ba3c 71ba 0b3d 87b1 dcbc 4d07 de3c
000000f0: 1842 433c a035 8fba 5557 aebc 24f8 a23c
00000100: 6ffe de3c a6a9 96ba 3195 8abc 6e7a 173c
00000110: 4cca a73c 4ac4 02bd 9456 9739 b20b 8d3b
00000120: 982f a9bc b85f 89bc 22d8 90bc fc5e 08bd
00000130: a7ca 113c a39a 943c b8fa 51bc 435e 573c
00000140: 4397 93bb 6871 bb3a 2f3d df3b c272 5ebb
00000150: 5634 fcbc 7051 493c c79c 9a3c 7fbb c53c
00000160: 9001 8f3c f8f1 dd3b d8ac 87bc 4311 523c
00000170: 792e 8c3c 0243 32bb e65b 3c3c 4ad6 863a
00000180: 36fd 89bb e615 e63c f74a 0a3d 990a 553d
00000190: ba41 a43c 9e7e 5f3c c55f ff3c 1ac5 293c
000001a0: d147 c33c 2afa ee3c d585 613b 9976 26bc
000001b0: 080a 27bc e87d afbc eb4e 9bbc bd31 1e3b
000001c0: d5f5 b638 f7c5 51bb 663b 9bbc f245 5a3c
000001d0: ea0e 693c 2ccb 973b 4ef5 3dbc bd5d 6cbc
000001e0: e9b6 00bc ede9 a53c 3563 4ebb 56c6 6d3b
000001f0: 43b0 933c 8c93 47bc 023a edbc b186 88bc
00000200: 9c0c b93b 1da3 9cbc fa85 2ebb 93a9 233c
00000210: 9f03 a93c ccb6 4cbc 18ad 083c e6c9 6bbc
00000220: 9b58 91bc 35ba 3cbb 8e2b 52bc 8e5d ef3b
00000230: 83b8 9ebc 74d4 943c ee72 a7bc cc1f a7bc
00000240: d754 943c bff1 cbbc e469 e2b9 eea3 bf3c
00000250: b0d3 203d 51eb aebc ec0a 64bc 384d cebb
00000260: c311 1139 c7f3 d3bb 9eff b33b a198 e63c
00000270: 5e60 833c 98f8 333c 23b1 db3b 17e4 b43c
00000280: dea2 493b 248a 943c 87f9 cfbc 087e 58bc
00000290: de95 d73c b9a1 a23a 1dea deba d1ef 3ebc
000002a0: b063 a33b 4409 d3bc b9d9 bf3c cfe8 8bbc
000002b0: 88e4 87bc 1736 a0bb 00fb 963c b94b 81bc
000002c0: d868 cf3c 11d1 d23c 7c1e 963c 35b5 c5bb
000002d0: 4384 453c 5348 8f3c 45cf f03b dc16 1cbb
000002e0: 7e42 45bc 9ae4 6cbc 0291 a6bc ebb2 14bc
000002f0: ab1e 10bb 2033 d9bc 55c1 03b9 1aa3 dc3c
00000300: eebd 80bc a10a 68ba e4e2 72bc ec6e 1b3d
00000310: 7a61 963a 3f00 e13a 1d01 a63a e72c 1f3b
00000320: 70fc 833c c9ec 7ebb 80e8 633a 396c 0dbc
00000330: 855c e73c 4ed1 7e3a cfce c63c 7529 a73c
00000340: 236b 783c 49f2 893b c898 1e3c 166b 7e3b
00000350: fa25 fbba c253 d33c 1bc8 af3c 1a11 0a3c
00000360: d6f8 13bd 707d 82bb d82e ebbb a4c8 603b
00000370: 688c 73bc 42f4 833c 459b e6bc 9fab 82bc
00000380: 625b f0bb 9c10 5e3c 998a 06bc f0e6 9b3b
00000390: ce33 92bc f52d c63c 421c 80bc 45bd 98bc
000003a0: 4f34 54bc 87cb d03b a072 b1bc 527d 18bc
000003b0: 2de7 8ebb 9565 4d3c b75f 753c 156a 0abc
000003c0: a661 98bb f572 a8bc caa4 05bc b12c 18bc
000003d0: d12e ff3c 3db9 14bd 96fb 0ebc 20b9 103c
000003e0: ac00 3dbc 2b4d a03c 1c6d adbc 1503 8cbc
000003f0: 384a 293c 7e87 c6bb 6f14 f5bc 09fa ed3c

layer1.bias f4 [32]
-0.01860247 0.01952061 -0.020413516 -0.021352602 -0.022741856 0.023280345 0.02131212 -0.027474187
0.00016782791 -0.02598279 -0.014608733 -0.014939255 -0.004521291 -0.02502042 -0.004449298 -0.011868084
-0.0047939816 -0.009320159 0.01180334 -0.010610117 -0.010676308 -0.005755808 0.020044608 0.006566965
0.003449563 0.012315927 -0.026728014 -0.018708607 -0.013894218 -0.017028632 0.00119423 -0.002832309
00000000: 3564 98bc b0e9 9f3c 3f3a a7bc a7eb aebc
00000010: 214d babc 6cb6 be3c c196 ae3c 8c11 e1bc
00000020: f6fa 2f39 dcd9 d4bc 7859 6fbc c7c3 74bc
00000030: 5627 94bb a0f7 ccbc 6bcb 91bb 5a72 42bc
00000040: d516 9dbb 95b3 18bc cc62 413c 0ed6 2dbc
00000050: aeeb 2ebc 389b bcbb 9734 a43c b22f d73b
00000060: 1012 623b bec8 493c b5f4 dabc cb42 99bc
00000070: 93a4 63bc a17f 8bbc b687 9c3a 439e 39bb

layernorm1.weight f4 [32]
1.0326312 1.0028933 1.0208968 1.0026672 0.99845195 0.99670994 0.99818134 1.0094067
1.0046657 0.9959819 0.9980083 0.9953303 0.99504364 0.926802 0.9978491 0.98810583
0.9904647 1.0195458 0.99816936 1.0189681 0.9663023 1.0177497 1.0113237 1.0165752
0.99994266 1.0084206 0.99607325 1.007818 1.0079387 1.0453341 0.98933756 0.99646884
00000000: 422d 843f cf5e 803f bfac 823f 6657 803f
00000010: 8c9a 7f3f 6228 7f3f d088 7f3f 3d34 813f
00000020: e398 803f abf8 7e3f 797d 7f3f f7cd 7e3f
00000030: 2ebb 7e3f e542 6d3f 0a73 7f3f 81f4 7c3f
00000040: 188f 7d3f 7a80 823f 0788 7f3f 8c6d 823f
00000050: 965f 773f 9f45 823f 0e73 813f 231f 823f
00000060: 3efc 7f3f ed13 813f a8fe 7e3f 2e00 813f
00000070: 2304 813f 82cd 853f 3a45 7d3f 9518 7f3f

layernorm1.bias f4 [32]
0.008878746 -0.00283708 0.0062116026 0.0071458034 -0.010139809 -0.010830362 -0.011457558 0.014151313
0.020266585 -0.00082446414 0.016855437 -0.005064256 -0.0074574295 0.01412156 -0.009290444 0.03335803
0.0068307808 0.007550221 -0.009806958 0.020562217 0.013994061 0.043639693 0.005189482 0.06150644
-0.0033708487 0.008923174 -0.007816752 0.016844152 0.0072651026 0.045179196 0.011525698 -0.0055173193
00000000: 2978 113c 4eee 39bb b38a cb3b 5827 ea3b
00000010: 7121 26bc d571 31bc 7bb8 3bbc e9da 673c
00000020: 1c06 a63c da20 58ba 6a14 8a3c 0ff2 a5bb
00000030: 745d f4bb 1e5e 673c f236 18bc 6ea2 083d
00000040: bed4 df3b d867 f73b 5dad 20bc 1872 a83c
00000050: 5947 653c 89bf 323d 880c aa3b 2dee 7b3d
00000060: 75e9 5cbb 8132 123c d611 00bc bffc 893c
00000070: 1910 ee3b d20d 393d 48d6 3c3c a1ca b4bb

blocks.0.fcn_layer.weight f4 [32, 32]
-0.09529538 -0.017919434 0.15869382 -0.028046545 -0.11105753 0.13725819 0.13068919 -0.13300017
-0.13017823 0.12062206 0.12550709 -0.04359885 0.075011335 0.024349423 -0.05417164 0.09725188
0.0044175424 -0.11817397 0.11419336 0.016701963 -0.050054137 0.12058476 0.057866145 0.04215507
0.13625057 0.02161376 0.10758836 -0.16435803 -0.003141104 0.23523076 -0.07246234 0.13033377
-0.12020538 0.04595275 0.010992764 -0.042621348 -0.1086869 0.010628024 0.11861536 0.19632876
-0.024764927 0.060854852 -0.010914957 -0.035157576 -0.033746667 0.10642184 0.091251224 -0.055988293
-0.086806305 -0.02261243 0.046351686 0.112396404 -0.047857024 -0.058139026 0.15739694 0.07903131
-0.10541751 0.074790426 -0.13458802 -0.010823226 0.034622904 -0.032839477 -0.17153426 -0.016895035
0.028392665 -0.0014018259 -0.14403237 0.14973955 -0.13355602 0.041101884 -0.020087637 0.09669772
0.1345423 -0.047320724 -0.15618575 -0.054099314 0.020865628 -0.0055185365 -0.0293078 0.014467766
-0.039523963 -0.046782877 -0.12527604 0.111178204 0.02124011 -0.13459663 -0.0903887 -0.17169563
0.054429192 -0.12515458 -0.011427182 0.058082264 0.00087925367 0.1452067 -0.047666162 -0.15987924
-0.16001278 -0.15510859 -0.11002452 0.019742034 -0.05762119 -0.13458294 -0.03664316 -0.08228025
0.104106344 0.0945689 0.15056217 -0.07217579 -0.0030764744 -0.08348005 0.1635918 -0.07006975
-0.10512971 0.08496282 -0.02285238 -0.14036278 -0.024252893 -0.07881972 0.07635798 0.1072016
-0.0022239783 0.1479389 0.04528238 0.055315476 -0.048303578 0.21095023 -0.065887176 0.09624076
0.025156708 0.15537018 0.09933174 0.17474681 0.075333476 0.05998887 -0.03852982 0.048996337
-0.070096225 -0.04821889 -0.0014010383 -0.11942053 0.049659487 -0.069916874 0.048322465 -0.07167027
0.14446652 0.0638146 -0.025055192 -0.0632021 -0.003198887 -0.027082697 0.059032947 -0.18683518
0.08582252 -0.009752511 -0.081084564 -0.11020614 -0.12343968 -0.21074349 0.11086818 -0.07550539
0.025416814 -0.11176163 0.031564843 0.11361903 0.12764606 -0.024506582 0.023402382 0.20785826
-0.057473518 0.17490534 0.12242365 0.041822117 0.16746666 0.14855136 0.11394544 -0.1087748
0.12422698 0.006703995 0.11292291 0.083767876 -0.12945071 -0.018698253 0.12639464 -0.1893692
-0.010627206 -0.07652556 0.0046737464 0.050909672 -0.0070531946 0.034134313 -0.14065166 0.041371495
-0.055183027 -0.05852938 -0.08948685 -0.032104146 -0.07056462 -0.14049767 -0.1351566 0.15482667
-0.00962834 -0.11224243 -0.12394486 -0.021101072 0.0031263055 0.06598401 0.025696902 -0.042492162
0.17844932 0.21155345 -0.0020036798 0.2418598 -0.063204356 -0.054576535 0.15606156 -0.046520736
-0.014364857 -0.09179846 -0.0720042 0.11871766 0.034452416 0.049455278 0.16629751 -0.06507418
0.07656132 0.12138607 0.049458906 -0.07455618 -0.014054905 -0.0514538 0.094697475 0.16131997
0.021848265 0.10542163 0.05506537 -0.13244219 -0.07204489 -0.09185391 0.116141036 -0.18202531
-0.16033553 0.012739271 -0.13992687 0.036334656 -0.096777454 -0.11435256 -0.19320136 0.008540584
0.011711705 0.15328176 -0.09696209 0.09277966 0.14554079 0.054607574 0.1123692 -0.113460355
00000000: 392a c3bd c7cb 92bc a280 223e dec1 e5bc
00000010: 2172 e3bd 698d 0c3e 63d3 053e 3231 08be
00000020: 714d 05be b308 f73d ee84 003e b594 32bd
00000030: 8b9f 993d 7178 c73c 15e3 5dbd fe2b c73d
00000040: 08c1 903b 3205 f2bd 35de e93d 8ed2 883c
00000050: 9105 4dbd 25f5 f63d 0d05 6d3d cbaa 2c3d
00000060: 4585 0b3e 570f b13c 4957 dc3d 794d 28be
00000070: fbda 4dbb 55e0 703e 2367 94bd 3776 053e
00000080: 3d2e f6bd f338 3c3d fe1a 343c b993 2ebd
00000090: 3d97 debd 2a21 2e3c 9cec f23d 680a 493e
000000a0: d1df cabc f042 793d a6d4 32bc 6401 10bd
000000b0: f239 0abd b2f3 d93d ece1 ba3d fb53 65bd
000000c0: 81c7 b1bd b43d b9bc 44db 3d3d 1630 e63d
000000d0: ba05 44bd 3023 6ebd aa2c 213e 2bdb a13d
000000e0: 23e5 d7bd b92b 993d 71d1 09be e653 31bc
000000f0: bfd0 0d3d b082 06bd ada6 2fbe 7567 8abc
00000100: bc97 e83c 79bd b7ba 397d 13be 5355 193e
00000110: e9c2 08be 735a 283d d48e a4bc 7409 c63d
00000120: 75c5 093e 60d3 41bd 28ef 1fbe 3e97 5dbd
00000130: 65ee aa3c d7d4 b4bb e916 f0bc 350a 6d3c
00000140: e1e3 21bd 679f 3fbd 5d48 00be 66b1 e33d
00000150: bdff ad3c b3d3 09be b61d b9bd fbd0 2fbe
00000160: 25f1 5e3d 8628 00be 1339 3bbc abe7 6d3d
00000170: b77d 663a 11b1 143e 983d 43bd 62b7 23be
00000180: 64da 23be c9d4 1ebe 8954 e1bd 0cba a13c
00000190: 3204 6cbd 1cd0 09be 2317 16bd 8c82 a8bd
000001a0: b535 d53d 57ad c13d f82c 1a3e e7d0 93bd
000001b0: ad9e 49bb 97f7 aabd 9c84 273e bb80 8fbd
000001c0: 3f4e d7bd fd00 ae3d ea34 bbbc 43bb 0fbe
000001d0: 01ae c6bc 3c6c a1bd 9361 9c3d 838c db3d
000001e0: 2ac0 11bb 4c7d 173e 047a 393d 7b92 623d
000001f0: f9d9 45bd 5603 583e dbef 86bd e019 c53d
00000200: 7115 ce3c 5c19 1f3e 706e cb3d d4f0 323e
00000210: 7048 9a3d e4b6 753d 72d1 1dbd 62b0 483d
00000220: 9c8e 8fbd 2c81 45bd 0ba3 b7ba c092 f4bd
00000230: bf67 4b3d 9430 8fbd c7ed 453d ddc7 92bd
00000240: 08ef 133e 3bb1 823d 8c40 cdbc 1a70 81bd
00000250: 6ba4 51bb 88dc ddbc 88cc 713d b951 3fbe
00000260: b8c3 af3d ffc8 1fbc aa0f a6bd c2b3 e1bd
00000270: f1cd fcbd 24cd 57be db0e e33d 92a2 9abd
00000280: ec36 d03c 48e3 e4bd 234a 013d 18b1 e83d
00000290: a6b5 023e 07c2 c8bc 5ab6 bf3c ccd8 543e
000002a0: 5a69 6bbd 631a 333e 40b9 fa3d ab4d 2b3d
000002b0: 617c 2b3e d91d 183e 3a5c e93d 53c5 debd
000002c0: b76a fe3d 30ad db3b 2044 e73d 7e8e ab3d
000002d0: ba8e 04be 142d 99bc 996d 013e 00ea 41be
000002e0: bc1d 2ebc 6fb9 9cbd 3a26 993b a986 503d
000002f0: 7c1e e7bb 6cd0 0b3d fd06 10be 2875 293d
00000300: 9907 62bd 81bc 6fbd e244 b7bd a37f 03bd
00000310: 2f84 90bd 9fde 0fbe 7e66 0abe e28a 1e3e
00000320: 2fc0 1dbc 5cdf e5bd ced6 fdbd 28dc acbc
00000330: b4e2 4c3b a022 873d 4f82 d23c 430c 2ebd
00000340: 6bbb 363e 78a1 583e 2b50 03bb 18aa 773e
00000350: 4971 81bd a58b 5fbd 9ace 1f3e 878c 3ebd
00000360: 945a 6bbc d500 bcbd f076 93bd 3f22 f33d
00000370: fa1d 0d3d 9e91 4a3d e549 2a3e 9d45 85bd
00000380: 2ecc 9c3d 4399 f83d 6c95 4a3d e9b0 98bd
00000390: 8b46 66bc 38c1 52bd c0f0 c13d 1031 253e
000003a0: 22fb b23c 4ce7 d73d 3a8c 613d ed9e 07be
000003b0: 458c 93bd e71d bcbd 5adb ed3d d864 3abe
000003c0: ff2e 24be 60b8 503c fd48 0fbe a6d3 143d
000003d0: 4233 c6bd ad31 eabd 94d6 45be ceed 0b3c
000003e0: 73e2 3f3c e5f5 1c3e 0f94 c6bd 4303 be3d
000003f0: a508 153e 31ac 5f3d d321 e63d e75d e8bd

blocks.0.fcn_layer.bias f4 [32]
0.009724501 -0.05522238 0.14892392 -0.12801732 0.022737583 -0.1447351 0.06416077 0.054817773
0.11057942 0.040593717 0.032120798 0.17555192 -0.023540765 -0.041631397 0.056859862 -0.022840554
0.013988292 0.044929694 -0.08105629 0.03230007 0.16574739 0.043113437 -0.08612663 0.0026117878
-0.07472535 0.02004068 0.17533651 -0.13640359 -0.019157864 0.054228194 0.03191584 0.06623953
00000000: 8353 1f3c dd30 62bd 837f 183e f916 03be
00000010: 2b44 ba3c 7035 14be b966 833d 9a88 603d
00000020: 7777 e23d 9945 263d 1991 033d e2c3 333e
00000030: 90d8 c0bc af85 2abd e3e5 683d 1d1c bbbc
00000040: 262f 653c 3308 383d d700 a6bd 144d 043d
00000050: afb9 293e b797 303d 2963 b0bd 872a 2b3b
00000060: 9b09 99bd 5a2c a43c 6a8b 333e 62ad 0bbe
00000070: f4f0 9cbc 621e 5e3d 2fba 023d 97a8 873d

blocks.0.layer_norm.weight f4 [32]
1.0448451 1.0487515 1.0291272 1.0006804 0.99827045 0.9914563 1.4017385 1.0063213
1.2767715 1.0071508 1.0033437 1.2899253 1.2338792 0.9904543 1.0108376 1.0529672
0.9769513 1.0072317 1.1143608 1.024948 1.0139394 0.99180466 1.3834206 0.9949399
1.0315533 1.0948424 1.3368952 1.2926995 0.99401945 0.88843554 0.9791978 1.01267
00000000: 7cbd 853f 7d3d 863f 71ba 833f 4c16 803f
00000010: a78e 7f3f 14d0 7d3f 2b6c b33f 23cf 803f
00000020: 406d a33f 51ea 803f 916d 803f 461c a53f
00000030: c1ef 9d3f 6a8e 7d3f 2063 813f a1c7 863f
00000040: 7b19 7a3f f8ec 803f 60a3 8e3f 7f31 833f
00000050: c4c8 813f e9e6 7d3f ed13 b13f 62b4 7e3f
00000060: f009 843f cc23 8c3f 621f ab3f 2d77 a53f
00000070: 0f78 7e3f 8370 633f b5ac 7a3f 2c9f 813f

blocks.0.layer_norm.bias f4 [32]
0.02247163 0.026334232 0.051970158 0.0016675183 0.008699567 -0.019722717 0.33911246 -0.002786863
0.28191495 0.011793421 0.0053109843 0.2904474 0.26809102 -0.012901106 0.008737094 0.024851806
-0.036674444 0.0011550236 0.04445509 0.0071742604 0.017639732 -0.0042171543 0.3318802 -0.0085024685
0.023940157 0.04600099 0.31151566 0.2888365 -0.013035918 -0.08476115 -0.032599118 0.0009701438
00000000: 6c16 b83c e3ba d73c a9de 543d a190 da3a
00000010: a188 0e3c 8991 a1bc 26a0 ad3e cda3 36bb
00000020: 2857 903e 3139 413c c407 ae3b 86b5 943e
00000030: 3a43 893e 295f 53bc 0726 0f3c 0496 cb3c
00000040: f137 16bd 2964 973a 8a16 363d 0f16 eb3b
00000050: 3381 903c 0e30 8abb 34ec a93e f04d 0bbc
00000060: 261e c43c 896b 3c3d fb7e 9f3e 61e2 933e
00000070: 9a94 55bc 4197 adbd a786 05bd 4051 7e3a

last_layer.weight f4 [1, 32]
0.17697321 0.2076472 -0.06091148 0.1598997 -0.0027226952 0.02092296 -0.3721099 0.026390443
-0.3729939 0.081597246 -0.12891804 -0.35286203 -0.37292346 -0.014408378 0.07434087 0.06476282
-0.06134572 0.086068064 0.2645582 0.17751378 0.16430277 -0.018096907 -0.35863125 0.003570546
0.1524223 0.10193204 -0.34654647 -0.3643057 -0.13493407 -0.010655739 -0.030434893 0.08593108
00000000: 7738 353e 78a1 543e 517e 79bd bfbc 233e
00000010: 3f6f 32bb a166 ab3c 3085 bebe c530 d83c
00000020: 0ef9 bebe 751c a73d 1703 04be 55aa b4be
00000030: d3ef bebe 1e11 6cbc 0740 983d 5fa2 843d
00000040: a645 7bbd 7444 b03d 2c74 873e 2cc6 353e
00000050: fc3e 283e f73f 94bc 849e b7be d2ff 693b
00000060: 9714 1c3e bfc1 d03d 8a6e b1be 4786 babe
00000070: 282c 0abe 6995 2ebc 9952 f9bc a2fc af3d
